econometrics/textbooks/datacode/StatisticalLearning/Python_labs/logs/hitters/version_0/checkpoints/epoch=49-step=300.ckpt (torch, 13515 bytes, 6 tensors)

model.sequential.0.weight f4 [50, 19]
000000 51 51 d0 bd 58 fa bc 3c 26 e0 93 be df a4 89 be
       -0.1017176 0.023068592 -0.2888195 -0.268836
000010 92 e1 40 be b6 9d 1d bd ec 1b d6 bd e1 bb a7 3d
       -0.18836048 -0.038480483 -0.104545444 0.08190132
000020 ec 7e f6 bd 76 f2 20 bd 7c 65 2d be d5 93 14 be
       -0.12035927 -0.03929373 -0.16933244 -0.14509518
000030 82 6a a3 be 02 fe 80 be 7a 3d 47 be 35 65 bb bd
       -0.31917197 -0.25193793 -0.19457045 -0.09150163
000040 58 6f 18 bc cc 3b 1a 3d e0 d4 82 be 1e b3 4c be
       -0.00930389 0.037654683 -0.25553036 -0.19990203
000050 4c 94 88 bc 31 5a b9 3d 36 bf 16 be 12 ca 92 3d
       -0.016672276 0.09050406 -0.14721379 0.07167448
000060 f5 43 0c be 7e 15 9b bd cd a1 dc 3d 3a 2a a0 be
       -0.13697799 -0.07572459 0.107730485 -0.31282216
000070 c8 4a 7a be bf df 21 be f3 f8 41 be 26 25 c9 3d
       -0.2444259 -0.15808009 -0.18942623 0.098215386
000080 e6 ab 7e be cc 8a 52 be 4e 43 85 be 92 35 a1 be
       -0.24870262 -0.2056076 -0.26027912 -0.31486183
000090 86 88 6f be 95 13 c7 3d a0 49 1b 3b 88 5c 37 3c
       -0.23391923 0.09720532 0.0023695007 0.011191495
0000a0 15 17 b4 bd 2a d7 5e be 8e 9e 7a bd 61 df a0 be
       -0.08793465 -0.21761766 -0.061186366 -0.31420425
0000b0 be 12 88 be 5a 82 5f be ba 48 37 3d be 5b 0d 3d
       -0.265768 -0.21827069 0.04474709 0.03451132
0000c0 2c 96 4e be c8 c0 dd bd 02 63 3f 3d c6 24 03 3e
       -0.20174474 -0.10827786 0.04672528 0.12806997
0000d0 58 9d 12 bc d6 53 8d bd 7a 72 5c 3d f2 b8 70 be
       -0.0089486465 -0.06900756 0.05382011 -0.23508051
0000e0 82 7e 6a bd 3a 0c 8f be 5a be 84 be b6 c1 5f be
       -0.057249554 -0.27939016 -0.25926477 -0.21851239
0000f0 c0 53 79 3b b0 8f fd bb 74 8e 71 be 96 28 27 bd
       0.0038044304 -0.007738076 -0.23589498 -0.04081019
000100 39 75 d0 3c b5 70 04 be 92 fc bc bd 0b f9 41 bd
       0.025446521 -0.1293362 -0.092278615 -0.047356647
000110 6e 98 2a 3d 64 56 f5 3d 6f b4 bc be e0 7d 3c be
       0.041649275 0.11979368 -0.3685641 -0.18407393
000120 86 30 7b bc a1 30 f1 3c 98 0b a3 3d c4 94 2e 3c
       -0.015331393 0.029442133 0.07961196 0.010655586
000130 b4 96 5e bd 88 57 99 be 68 e3 ac 3c e1 f7 12 be
       -0.05434294 -0.29949594 0.02110453 -0.14352371
000140 af ef 5a be e7 b9 50 3e 35 73 98 3d d8 5e a8 be
       -0.21380495 0.20383416 0.07443849 -0.3288486
000150 86 b7 69 bd 94 f9 0d be 1a 0f 0d be e1 ef 51 be
       -0.057059787 -0.13864738 -0.13775292 -0.20501663
000160 58 f3 40 bc 82 8b 71 be 92 3d ac 3d e4 36 83 3c
       -0.011776768 -0.23588374 0.08410181 0.016017385
000170 2d 8c 83 3d 58 f6 68 bc 85 74 a7 be 0c f4 1f bf
       0.06423221 -0.014218889 -0.32706085 -0.6248176
000180 f5 b6 0c bf 06 4e 1e bf 36 6f 67 bf fe d0 63 bf
       -0.5496667 -0.61837804 -0.9040407 -0.8899077
000190 3a bd e0 be 8f d5 87 3f 75 1b 97 be a1 52 84 be
       -0.43894368 1.0612048 -0.29513136 -0.2584429
0001a0 92 3d 35 bd 39 cc 04 be 81 33 33 be 98 b5 7d be
       -0.04424817 -0.1296853 -0.17500116 -0.24776304
0001b0 21 d0 98 3f cb 0b aa bf ba 9d de 3e da fe 90 3f
       1.1938516 -1.3284849 0.4347971 1.1327775
0001c0 c8 96 19 3f 24 b6 b4 3f 02 5e 6a 3d b3 40 96 be
       0.599957 1.4118085 0.05721856 -0.29346237
0001d0 4a de 20 be 75 99 b7 bd d3 3f 88 bd fc ba 3a bd
       -0.15709797 -0.089648165 -0.066527985 -0.04558848
0001e0 20 5c 23 bc 03 a8 b0 bd 6a 06 59 be b0 32 0c 3c
       -0.009970695 -0.08625796 -0.21193853 0.008557007
0001f0 cb df a3 be c0 a3 71 be 3a 35 21 be f4 dd e4 bd
       -0.32006678 -0.23597622 -0.1574296 -0.11175147
000200 ee 5d a4 bd 34 79 93 be 14 5f 18 be 64 bc 50 bd
       -0.08025728 -0.28803408 -0.1488002 -0.050960913
000210 20 0b 19 be 9b 5e e2 be 43 67 97 be 2f 4b b9 be
       -0.1494565 -0.44212803 -0.2957097 -0.36190173
000220 7e df ee be 09 7d d6 be 2a 03 f1 be 96 22 f0 3d
       -0.46654886 -0.4189227 -0.47072726 0.11725347
000230 26 3d 13 3e 1c 7f e9 3c ce 91 e2 3c da 33 49 be
       0.14378795 0.028502993 0.027657416 -0.19648686
000240 f0 2f 9e be 18 ba 5f be 89 ca 93 be 92 a0 27 be
       -0.30895948 -0.21848333 -0.2886546 -0.16369846
000250 89 67 66 be 81 b3 2b bf 89 be 4f bf 11 b5 07 bf
       -0.22500433 -0.67070776 -0.8115011 -0.5301066
000260 60 9a 3e bd 1d d5 00 3e 42 04 fe 3d e4 90 62 be
       -0.046533942 0.12581296 0.12403156 -0.22125584
000270 39 8a 12 3e 16 d4 37 be d4 a8 46 bd 36 82 be bd
       0.1431054 -0.17951998 -0.04850085 -0.093021795
000280 80 ff 34 bd 2c 80 38 bd 96 ce 52 be 1e d7 4a be
       -0.044188976 -0.04504411 -0.20586619 -0.19808623
000290 ac 0a 13 bd 80 6f 42 3b 26 70 d5 bd 5a fd b0 3d
       -0.03589885 0.002966851 -0.10421781 0.08642073
0002a0 79 71 53 be e0 aa 7d bc 3f 98 4e 3e 02 39 46 be
       -0.20648755 -0.015482634 0.20175265 -0.19357684
0002b0 56 78 db 3d ec 93 8a bc 2e 34 9d be fa ef 38 3d
       0.10716312 -0.016916238 -0.30703872 0.045150734
0002c0 38 82 01 be 4a 45 4f be 6e e9 aa 3d 9b 1e 92 be
       -0.12647331 -0.20241275 0.083453044 -0.28538975
0002d0 2b 62 9a bd d3 95 17 be 9d b8 82 3d a6 4a 13 bd
       -0.07538255 -0.14803247 0.063828684 -0.035959862
0002e0 d0 b2 27 3c 7c 7b 9b bc 8a e4 1e be 29 ce 17 be
       0.010235503 -0.01897978 -0.15516868 -0.14824738
0002f0 50 ff 93 be a8 20 c7 3c a4 c4 c4 3e c0 eb 18 3f
       -0.28905725 0.024307564 0.38431275 0.59734726
000300 90 b3 af 3c 1c cc c9 3e ff 8b 69 3e 4d 36 e0 3e
       0.021447927 0.39413536 0.2280731 0.43791428
000310 f7 d7 c9 be d0 5d 07 bd ef 11 a7 bd e7 15 75 3e
       -0.3942258 -0.03304845 -0.081577174 0.23934136
000320 10 99 dd 3d 13 91 84 3e f5 e5 51 be 8f fc 1b bc
       0.1082021 0.25891933 -0.20497878 -0.009520664
000330 f5 95 a0 bf 28 4f b5 3e 4b 52 0d be dd ce ca 3e
       -1.2545763 0.35411954 -0.13800924 0.3961095
000340 0f f2 94 3e c3 17 08 be 26 05 31 be 44 98 1c be
       0.29090926 -0.13290314 -0.1728712 -0.1529246
000350 1e da 44 be aa 78 71 be 31 40 58 be f5 4a 36 3e
       -0.1922383 -0.23581186 -0.21118237 0.17802031
000360 89 c4 e9 bd b4 0f 50 bd be f3 83 3e e8 02 e5 bd
       -0.11414439 -0.050796226 0.25771898 -0.11182195
000370 9c 65 71 3d 3a a1 9b 3e 5b 55 59 3f a7 94 4e bf
       0.058934793 0.30396444 0.8489587 -0.80695575
000380 11 ef 0c be 37 39 ee 3e 29 b7 b9 bd f3 af 46 3f
       -0.13763072 0.46528026 -0.09068138 0.7761223
000390 5f 3e 40 3e c0 61 f8 3e c4 32 07 3e bd 93 09 3f
       0.18773793 0.48512077 0.1320296 0.53741056
0003a0 c1 95 ce 3e 47 e8 43 3f 1c bb a9 bd 6a 8d 37 be
       0.40348628 0.765263 -0.082876414 -0.17925039
0003b0 c7 70 72 3e 85 b4 eb 3e 9f 29 d8 3d 20 97 9c 3e
       0.23675834 0.46036163 0.105548136 0.3058405
0003c0 11 14 4e 3e 54 eb a3 3e 24 80 b8 bf d0 26 70 3e
       0.20124842 0.3201548 -1.4414105 0.23452306
0003d0 65 d7 0e bc ea 4b c7 3d d0 e4 b1 3e be 54 94 be
       -0.008718346 0.09731276 0.34744883 -0.28970903
0003e0 0b 53 c6 bd 34 c3 1f bd 2e 74 f7 bd 18 66 f8 3c
       -0.09683808 -0.03900452 -0.120827064 0.03032212
0003f0 db 42 42 3e 7c 12 2b be 22 df 71 be 7d 48 3d be
       0.18970816 -0.1670627 -0.23620275 -0.18484683

model.sequential.0.bias f4 [50]
000000 ec 52 75 be 8f 18 43 be 73 3b 93 be 76 5d a5 be
       -0.23957413 -0.19052337 -0.28756294 -0.32297868
000010 c2 ae 18 3d ad b7 a8 3f 0c 37 8e bd ee 3e 06 bf
       0.037276037 1.3181053 -0.06944093 -0.52439773
000020 3e 51 9c 3d 33 b1 b7 bd 3d 77 4c bd 87 76 04 3f
       0.07632683 -0.08969345 -0.049918402 0.5174336
000030 a0 75 cf 3e 39 bc a6 be 8d 00 a8 be 1e cf 1a 3e
       0.40519428 -0.32565477 -0.3281292 0.15118071
000040 5a 63 74 3e 3d c1 73 3f 52 be 61 bd 27 09 4a 3f
       0.23866025 0.95216733 -0.055113144 0.78920215
000050 40 f5 2e 3d 8c 1c ae be 33 63 6a 3e 7e 1a 43 3f
       0.042714357 -0.34006155 0.22889404 0.762123
000060 ba 86 6a be 50 72 a2 3c 64 34 2c bc 2c 96 0e 3e
       -0.22902957 0.0198299 -0.010510538 0.13924474
000070 39 bb 69 be 0e ee 58 3e ee 9a 2a be 53 0a 66 be
       -0.22825326 0.2118456 -0.16660663 -0.22464876
000080 38 95 16 be 6a 4b 66 be aa 37 8a bd 64 2d c4 bd
       -0.1470536 -0.22489706 -0.06748898 -0.0957897
000090 02 be 20 3e 93 60 87 3f 1e d5 9d bd 6d cb 68 3e
       0.15697482 1.0576347 -0.077066645 0.22733851
0000a0 d0 9a 8d 3c c3 5e 37 3e 2c 23 ea bd 15 f1 31 be
       0.017285734 0.17907242 -0.1143249 -0.17377122
0000b0 82 74 39 3e 50 6b 13 3e 86 3a 69 bd ab 3f 4a be
       0.1811085 0.14396405 -0.056940578 -0.1975085
0000c0 25 1d cb bd 88 19 c8 bc
       -0.09917668 -0.024426237

model.sequential.3.weight f4 [1, 50]
000000 25 2d b4 3d 18 9e 28 bc d1 04 cb 3d 15 99 5a bc
       0.08797673 -0.010291599 0.09913028 -0.013342162
000010 d1 7d 8e 3d 6f 88 aa 3f 00 ec d9 3a 3b 40 ab bd
       0.06957591 1.3322886 0.001662612 -0.0836186
000020 30 71 0d bd fa cd 7a 3d d9 5f a2 3d 4e ef 4e 3e
       -0.034531772 0.06123159 0.07928438 0.20208475
000030 d4 f4 ed 3d 80 ec 28 3b 43 5c b8 3d 99 d2 a1 3d
       0.11618963 0.002577573 0.090019725 0.079014964
000040 e1 43 ee 3d 25 75 a6 3f 9b 8d 94 3c bc 6e fa 3e
       0.116340406 1.30045 0.018133929 0.4891261
000050 8d 3b 9e 3d a2 b9 85 bd 28 12 a8 bd 3a 26 2b 3f
       0.07726202 -0.06529547 -0.08206588 0.66855204
000060 b8 81 b8 3d 2c c7 08 be 23 0e cb 3d e0 5d e9 3d
       0.09009117 -0.13357228 0.09914806 0.11394858
000070 b8 78 44 bd aa c5 69 3d b0 51 41 3c c8 87 a8 3c
       -0.04796669 0.057073273 0.011799261 0.020572558
000080 af 6a 87 3d fc b9 61 3d 91 27 be 3d 23 51 df 3d
       0.06612145 0.05510901 0.092848904 0.109041475
000090 dd 14 1b bf 4b 7b 8d 3f 51 ea f0 bd 5d 4f ca 3d
       -0.6057871 1.1053251 -0.11763442 0.098784186
0000a0 2a 9f 0b 3d 97 4b 04 3e 0c 8c 5f 3d a4 82 9b 3c
       0.034087338 0.1291946 0.05457692 0.018983193
0000b0 b3 f0 a4 3d bf 19 c3 3d 00 c9 07 bb 81 c5 b1 3d
       0.08053722 0.09526395 -0.002071917 0.08680249
0000c0 00 6d 14 bd 42 b7 4c 3d
       -0.036236763 0.049979456

square_avg f4 [50, 19]
000000 da fc ac 46 18 d7 b4 44 0c e1 af 41 b9 b2 c0 43
       22142.426 1446.7217 21.984886 385.39627
000010 35 3a d4 43 d4 3e 71 43 1e 5e 85 41 63 61 27 4a
       424.45474 241.24542 16.670956 2.7423608e+06
000020 1a c1 41 48 0d 9c 1c 45 49 42 4a 47 99 f8 3f 47
       198404.4 2505.7532 51778.285 49144.598
000030 89 98 e5 46 73 94 cf 3c 51 a0 26 3d 76 fd 6b 46
       29388.268 0.02533934 0.040680233 15103.365
000040 f1 69 9a 44 67 31 16 41 b3 7b 3a 3c f1 91 47 4a
       1235.3107 9.387061 0.011382031 3.2697562e+06
000050 69 95 72 48 48 19 0a 45 d3 20 74 47 1f da 5d 47
       248405.64 2209.58 62496.824 56794.12
000060 55 83 24 47 69 f6 e9 44 bd 7d 91 4d c3 46 ae 4b
       42115.332 1871.7003 3.051171e+08 2.2842758e+07
000070 a5 3a 7c 48 14 0c b5 4a a4 38 a0 4a 82 33 58 4a
       258282.58 5.932554e+06 5.25013e+06 3.5422405e+06
000080 4e a6 56 40 6a 69 2d 3f eb 58 c0 49 d8 3e 77 48
       3.3539004 0.67738974 1.5757094e+06 253179.38
000090 bd 2c b2 44 50 36 e9 3f 02 39 fe 3e c6 68 01 3d
       1425.3981 1.82197 0.49652869 0.03159406
0000a0 37 7e 95 39 9b 87 00 3c 4d 2e c4 3b 57 68 45 3b
       0.00028513532 0.007844831 0.005986965 0.0030122006
0000b0 26 ee 85 37 95 3a 69 3f b0 4c 6b 3d bc ff ee 39
       1.5965732e-05 0.91105014 0.05744618 0.00045585434
0000c0 40 9e 77 3c 7d 69 25 3c b9 57 c1 3b 83 c3 a6 35
       0.015113413 0.010095951 0.00590035 1.2424865e-06
0000d0 2d fc ff 34 fe 1a 21 3f 40 87 02 3e 1b 4b eb 39
       4.7680933e-07 0.6293181 0.12746906 0.0004487865
0000e0 83 c3 a6 35 e1 64 9c 4a 4b ca d6 48 c6 6b 92 45
       1.2424865e-06 5.1247205e+06 439890.34 4685.4717
0000f0 1c 7e e6 47 0b aa c7 47 6a de 7e 47 e4 27 91 44
       118012.22 102228.086 65246.414 1161.2466
000100 ea 64 41 4d d3 6a 7e 4b d2 6b d7 47 37 b8 77 4a
       2.0278851e+08 1.6673491e+07 110295.64 4.0586378e+06
000110 9f 1c 43 4a b1 be f1 49 71 d1 67 40 c3 36 3d 40
       3.1967118e+06 1.9803741e+06 3.6221583 2.9564674
000120 85 c8 b6 4a ff 2b c1 48 68 e3 26 45 71 d1 67 40
       5.9894425e+06 395615.97 2670.213 3.6221583
000130 46 08 11 41 32 a4 b9 3c 00 00 00 00 00 00 00 00
       9.06452 0.022661302 0.0 0.0
000140 00 00 00 00 00 00 00 00 32 a4 b9 3d e7 5f 18 42
       0.0 0.0 0.09064521 38.093655
000150 d5 f3 ea 3f 32 a4 b9 3d be d8 50 3f b8 21 8e 3f
       1.8355662 0.09064521 0.8158072 1.110404
000160 32 a4 b9 3e 32 a4 b9 3c 00 00 00 00 0f df 09 43
       0.36258084 0.022661302 0.0 137.87132
000170 d5 19 89 44 be d8 50 3f 32 a4 b9 3c 21 67 30 4b
       1096.8073 0.8158072 0.022661302 1.1560737e+07
000180 9c 50 33 49 fa 85 94 45 90 4f 05 48 33 f8 e1 47
       734473.75 4752.747 136510.25 115696.4
000190 a9 93 89 47 92 6c e8 45 a5 89 b0 4b a1 9e c0 49
       70439.32 7437.5713 2.3139146e+07 1.5779401e+06
0001a0 db 5d 6e 46 74 79 9e 48 c2 fe c3 48 15 85 3a 48
       15255.464 324555.62 401398.06 190996.33
0001b0 92 c3 e0 44 93 62 63 42 c3 09 d8 4b 9f 75 a8 4c
       1798.1116 56.846264 2.831655e+07 8.832127e+07
0001c0 20 07 89 47 88 9e e2 44 5e aa 8b 3f 56 4b 87 3d
       70158.25 1812.9541 1.0911367 0.06606166
0001d0 98 79 0b 3a 07 ee 59 3c 07 ee 59 3c eb 2b 36 3c
       0.0005320548 0.013301379 0.013301379 0.011118869
0001e0 eb 2b 36 37 5e aa 8b 3f 56 4b 87 3d 98 79 0b 3a
       1.0858271e-05 1.0911367 0.06606166 0.0005320548
0001f0 07 ee 59 3c 07 ee 59 3c eb 2b 36 3c 00 00 00 00
       0.013301379 0.013301379 0.011118869 0.0
000200 00 00 00 00 34 20 b4 3c 39 7e 25 3e f4 85 f0 3b
       0.0 0.021988012 0.16161431 0.007340187
000210 00 00 00 00 d9 f3 dd 4b 12 05 14 4a e0 20 02 47
       0.0 2.9091762e+07 2.4251565e+06 33312.875
000220 c6 bd 11 49 30 23 31 49 bd d2 ba 48 45 82 98 46
       596956.4 725555.0 382613.9 19521.135
000230 10 d8 76 4f 91 1b a5 4d 50 7b ac 4a 19 b3 a6 4c
       4.141355e+09 3.462559e+08 5.65188e+06 8.73986e+07
000240 fa bd b5 4c 61 12 11 4c 22 b5 e0 41 7d fb 14 42
       9.52852e+07 3.80297e+07 28.088444 37.245594
000250 89 da b2 4b 4f ac 9b 49 61 04 13 46 5e 0a d4 41
       2.3442706e+07 1.2752739e+06 9409.095 26.505062
000260 00 00 00 00 00 00 00 00 00 00 00 00 00 00 00 00
       0.0 0.0 0.0 0.0
000270 00 00 00 00 00 00 00 00 00 00 00 00 00 00 00 00
       0.0 0.0 0.0 0.0
000280 00 00 00 00 00 00 00 00 00 00 00 00 00 00 00 00
       0.0 0.0 0.0 0.0
000290 00 00 00 00 00 00 00 00 00 00 00 00 00 00 00 00
       0.0 0.0 0.0 0.0
0002a0 00 00 00 00 00 00 00 00 00 00 00 00 ad 49 6f 48
       0.0 0.0 0.0 245030.7
0002b0 7e 53 81 46 40 89 0b 43 49 3d 7c 45 77 3e 7c 45
       16553.746 139.53613 4035.8303 4035.904
0002c0 01 2d 25 45 b8 e9 1a 43 b0 ae 9d 4b b8 25 b4 49
       2642.8127 154.91296 2.0667744e+07 1.475767e+06
0002d0 19 07 1d 46 e9 c0 ad 48 ae 05 93 48 e7 58 39 48
       10049.774 355847.28 301101.44 189795.61
0002e0 35 77 ff 3e 73 6e 3a 3e da 7c 1d 48 7c 9e 7f 46
       0.49895635 0.18206196 161267.4 16359.621
0002f0 51 a0 cf 42 35 77 ff 3e 2e f7 bf 4c e1 57 f8 4a
       103.81312 0.49895635 1.0064523e+08 8.1377125e+06
000300 de 84 d5 47 ac 35 03 4a 55 c6 ff 49 49 3d af 49
       109321.734 2.149739e+06 2.0953066e+06 1.4355611e+06
000310 69 72 45 47 f2 be 0a 50 99 21 30 4e a1 02 2d 4b
       50546.41 9.311078e+09 7.3874797e+08 1.1338401e+07
000320 7c 29 34 4d 11 a6 39 4d c4 f8 c6 4c 4a 5d 13 43
       1.889136e+08 1.9466677e+08 1.043185e+08 147.36441
000330 84 85 04 43 34 32 f6 4c 8a 22 21 4b 7f 2d 1c 47
       132.52155 1.2907766e+08 1.0560138e+07 39981.496
000340 73 f3 0f 43 ed f8 31 4a 14 2c 38 48 65 d8 6a 45
       143.95097 2.9158992e+06 188592.31 3757.5247
000350 19 4b 55 47 e0 0c 4c 47 7f 15 1d 47 94 ff e0 44
       54603.098 52236.875 40213.496 1799.9868
000360 3b 8a 89 4d 05 4e 9a 4b 4c 84 ba 48 64 82 b8 4a
       2.884422e+08 2.0225034e+07 381986.38 6.046002e+06
000370 9d 91 af 4a 7a 56 86 4a e3 9f 86 42 6e 50 aa 40
       5.7530385e+06 4.401981e+06 67.31228 5.322318
000380 61 d6 bf 49 52 fd 6e 4a eb 5c 71 45 4d 46 86 42
       1.5715321e+06 3.9156045e+06 3861.8074 67.13731
000390 b2 ce 27 4d ee 7a 56 4b 39 e9 3a 48 8c 57 60 4a
       1.7595882e+08 1.4056174e+07 191396.89 3.675619e+06
0003a0 c0 7f 5c 4a 1a 67 15 4a 8b ec ab 47 12 9e 77 50
       3.612656e+06 2.4478145e+06 88025.086 1.6617327e+10
0003b0 61 56 9e 4e 74 92 9a 4b 5d 2a a0 4d 7a f8 a8 4d
       1.3282305e+09 2.0260072e+07 3.3589136e+08 3.5435706e+08
0003c0 2b c9 2f 4d 44 cc 82 43 b4 63 93 43 e5 8e 5c 4d
       1.8432478e+08 261.59583 294.77893 2.3127202e+08
0003d0 47 72 9b 4b 22 56 9a 47 ca ea 70 43 b8 9a c3 42
       2.037467e+07 79020.266 240.91714 97.802185
0003e0 9d 5f 7a 3e 00 00 00 00 00 00 00 00 00 00 00 00
       0.24450536 0.0 0.0 0.0
0003f0 00 00 00 00 9d 5f 7a 3f bc 81 cd 43 85 70 9e 41
       0.0 0.97802144 411.01355 19.804941

square_avg f4 [50]
000000 2d 55 03 3e 3f 5b 86 41 d7 74 08 36 ef 73 98 41
       0.1282546 16.794554 2.033359e-06 19.056608
000010 32 a4 b9 3c 5d d9 e3 44 eb 2b 36 37 08 33 05 43
       0.022661302 1822.7926 1.0858271e-05 133.19934
000020 00 00 00 00 a8 7e c3 3f 84 89 f8 43 30 fd 98 42
       0.0 1.5273027 497.07434 76.49451
000030 de 2b 5b 44 9d 5f 7a 3e 2c 9c 64 3c 0a ee 1f 44
       876.6854 0.24450536 0.01395325 639.71936
000040 20 3d 60 44 81 2b e9 44 00 c9 14 41 d2 b3 58 43
       896.9551 1865.3595 9.299072 216.70242
000050 f6 a5 d6 43 09 cc 48 42 00 00 00 00 28 7d 0d 44
       429.29657 50.199253 0.0 565.95557
000060 fd f2 82 38 00 00 00 00 37 e7 99 43 3e 95 fc 43
       6.244143e-05 0.0 307.80637 505.16595
000070 00 00 00 00 ac 51 ca 43 54 8a 0a 38 00 00 00 00
       0.0 404.63806 3.3030592e-05 0.0
000080 da 59 30 40 57 e7 15 40 3e 19 a4 3a 94 53 21 44
       2.755484 2.3422449 0.001251973 645.3059
000090 09 54 ff 44 fd dc bb 44 00 00 00 00 92 0c 5a 44
       2042.6261 1502.9059 0.0 872.1964
0000a0 1e 31 35 41 00 00 00 00 81 c3 42 40 18 1c 95 3f
       11.3244915 0.0 3.0431826 1.1649199
0000b0 1e ea 04 44 02 c6 11 44 45 60 ad 3d 00 9f 91 43
       531.6581 583.0939 0.084656276 291.2422
0000c0 01 d8 c5 41 50 1b a1 43
       24.73047 322.21338

square_avg f4 [1, 50]
000000 fb 4f b7 4d 54 e6 b3 4d 90 e4 d3 45 2c b9 a9 4d
       3.8443402e+08 3.7727706e+08 6780.5703 3.559356e+08
000010 2c dc 01 47 3d ea 8b 4c 40 d2 4d 3d 01 6a 49 4f
       33244.17 7.335575e+07 0.05024934 3.3791675e+09
000020 00 00 00 00 08 09 84 4d 06 3d 8b 50 e5 ff 08 4d
       0.0 2.7689805e+08 1.8688258e+10 1.4365448e+08
000030 2c 96 09 50 7b 32 08 47 98 75 cf 47 c5 fa 85 50
       9.233281e+09 34866.48 106219.19 1.7982433e+10
000040 6c 6b fe 4f 3b 57 a9 4c bb 08 5b 4d 87 c7 2d 4c
       8.5369057e+09 8.878332e+07 2.296739e+08 4.5555228e+07
000050 f6 9e d1 50 b6 59 6a 4f 00 00 00 00 1d d3 52 4c
       2.8134846e+10 3.9317478e+09 0.0 5.526642e+07
000060 05 d2 d1 45 00 00 00 00 1d 75 bb 50 c6 e3 81 50
       6714.2524 0.0 2.5160116e+10 1.7433506e+10
000070 00 00 00 00 e8 71 c3 50 ed ed 25 38 00 00 00 00
       0.0 2.6232177e+10 3.956065e-05 0.0
000080 6d 59 6f 4e 7a 84 24 4b 96 65 4b 46 6e f2 96 50
       1.0039038e+09 1.0781818e+07 13017.396 2.0259762e+10
000090 f0 c1 73 4d c3 d9 c9 4c 00 00 00 00 b9 af 91 50
       2.5559834e+08 1.05827864e+08 0.0 1.95537e+10
0000a0 3b fd 5b 4d 00 00 00 00 f9 bc a3 4e 7d 9f 4e 48
       2.3067538e+08 0.0 1.3735354e+09 211581.95
0000b0 e5 f1 ed 50 c5 97 90 50 f1 37 60 47 b6 ea 71 51
       3.1936424e+10 1.9406924e+10 57399.94 6.4939057e+10
0000c0 20 81 da 4c 09 b0 aa 50
       1.1455923e+08 2.2909307e+10
